…
               batch_size: 8                             
             style_weight: 10.0                          
           content_weight: 1.0                           
                n_threads: 16                            
      save_model_interval: 10000                         
                  verbose: True                          
                  isTrain: True                          	[default: None]
                 expr_dir: ./experiments/Full_VGG        	[default: None]
----------------- End -------------------

---------- Networks initialized -------------
Sequential(
  (0): Conv2d(3, 3, kernel_size=(1, 1), stride=(1, 1))
  (1): ReflectionPad2d((1, 1, 1, 1))
  (2): Conv2d(3, 64, kernel_size=(3, 3), stride=(1, 1))
  (3): ReLU()
)
[Network enc_1] Total number of parameters : 0.002 M
Sequential(
  (0): ReflectionPad2d((1, 1, 1, 1))
  (1): Conv2d(64, 64, kernel_size=(3, 3), stride=(1, 1))
  (2): ReLU()
  (3): MaxPool2d(kernel_size=(2, 2), stride=(2, 2), padding=(0, 0), dilation=1, ceil_mode=True)
  (4): ReflectionPad2d((1, 1, 1, 1))
  (5): Conv2d(64, 128, kernel_size=(3, 3), stride=(1, 1))
  (6): ReLU()
)
[Network enc_2] Total number of parameters : 0.111 M
Sequential(
  (0): ReflectionPad2d((1, 1, 1, 1))
  (1): Conv2d(128, 128, kernel_size=(3, 3), stride=(1, 1))
  (2): ReLU()
  (3): MaxPool2d(kernel_size=(2, 2), stride=(2, 2), padding=(0, 0), dilation=1, ceil_mode=True)
  (4): ReflectionPad2d((1, 1, 1, 1))
  (5): Conv2d(128, 256, kernel_size=(3, 3), stride=(1, 1))
  (6): ReLU()
)
[Network enc_3] Total number of parameters : 0.443 M
Sequential(
  (0): ReflectionPad2d((1, 1, 1, 1))
  (1): Conv2d(256, 256, kernel_size=(3, 3), stride=(1, 1))
  (2): ReLU()
  (3): ReflectionPad2d((1, 1, 1, 1))
  (4): Conv2d(256, 256, kernel_size=(3, 3), stride=(1, 1))
  (5): ReLU()
  (6): ReflectionPad2d((1, 1, 1, 1))
  (7): Conv2d(256, 256, kernel_size=(3, 3), stride=(1, 1))
  (8): ReLU()
  (9): MaxPool2d(kernel_size=(2, 2), stride=(2, 2), padding=(0, 0), dilation=1, ceil_mode=True)
  (10): ReflectionPad2d((1, 1, 1, 1))
  (11): Conv2d(256, 512, kernel_size=(3, 3), stride=(1, 1))
  (12): ReLU()
)
[Network enc_4] Total number of parameters : 2.950 M
Sequential(
  (0): ReflectionPad2d((1, 1, 1, 1))
  (1): Conv2d(512, 512, kernel_size=(3, 3), stride=(1, 1))
  (2): ReLU()
  (3): ReflectionPad2d((1, 1, 1, 1))
  (4): Conv2d(512, 512, kernel_size=(3, 3), stride=(1, 1))
  (5): ReLU()
  (6): ReflectionPad2d((1, 1, 1, 1))
  (7): Conv2d(512, 512, kernel_size=(3, 3), stride=(1, 1))
  (8): ReLU()
)
[Network enc_5] Total number of parameters : 7.079 M
Sequential(
  (0): MaxPool2d(kernel_size=(2, 2), stride=(2, 2), padding=(0, 0), dilation=1, ceil_mode=True)
  (1): ReflectionPad2d((1, 1, 1, 1))
  (2): Conv2d(512, 512, kernel_size=(3, 3), stride=(1, 1))
  (3): ReLU()
  (4): ReflectionPad2d((1, 1, 1, 1))
  (5): Conv2d(512, 512, kernel_size=(3, 3), stride=(1, 1))
  (6): ReLU()
  (7): ReflectionPad2d((1, 1, 1, 1))
  (8): Conv2d(512, 512, kernel_size=(3, 3), stride=(1, 1))
  (9): ReLU()
  (10): ReflectionPad2d((1, 1, 1, 1))
  (11): Conv2d(512, 512, kernel_size=(3, 3), stride=(1, 1))
  (12): ReLU()
)
[Network enc_6] Total number of parameters : 9.439 M
Sequential(
  (0): ReflectionPad2d((1, 1, 1, 1))
  (1): Conv2d(512, 512, kernel_size=(3, 3), stride=(1, 1))
  (2): ReLU()
  (3): ReflectionPad2d((1, 1, 1, 1))
  (4): Conv2d(512, 512, kernel_size=(3, 3), stride=(1, 1))
  (5): ReLU()
  (6): ReflectionPad2d((1, 1, 1, 1))
  (7): Conv2d(512, 512, kernel_size=(3, 3), stride=(1, 1))
  (8): ReLU()
  (9): ReflectionPad2d((1, 1, 1, 1))
  (10): Conv2d(512, 512, kernel_size=(3, 3), stride=(1, 1))
  (11): ReLU()
  (12): Upsample(scale_factor=2, mode=nearest)
  (13): ReflectionPad2d((1, 1, 1, 1))
  (14): Conv2d(512, 512, kernel_size=(3, 3), stride=(1, 1))
  (15): ReLU()
  (16): ReflectionPad2d((1, 1, 1, 1))
  (17): Conv2d(512, 512, kernel_size=(3, 3), stride=(1, 1))
  (18): ReLU()
  (19): ReflectionPad2d((1, 1, 1, 1))
  (20): Conv2d(512, 256, kernel_size=(3, 3), stride=(1, 1))
  (21): ReLU()
  (22): Upsample(scale_factor=2, mode=nearest)
  (23): ReflectionPad2d((1, 1, 1, 1))
  (24): Conv2d(256, 256, kernel_size=(3, 3), stride=(1, 1))
  (25): ReLU()
  (26): ReflectionPad2d((1, 1, 1, 1))
  (27): Conv2d(256, 256, kernel_size=(3, 3), stride=(1, 1))
  (28): ReLU()
  (29): Upsample(scale_factor=2, mode=nearest)
  (30): ReflectionPad2d((1, 1, 1, 1))
  (31): Conv2d(256, 128, kernel_size=(3, 3), stride=(1, 1))
  (32): ReLU()
  (33): ReflectionPad2d((1, 1, 1, 1))
  (34): Conv2d(128, 128, kernel_size=(3, 3), stride=(1, 1))
  (35): ReLU()
  (36): Upsample(scale_factor=2, mode=nearest)
  (37): ReflectionPad2d((1, 1, 1, 1))
  (38): Conv2d(128, 64, kernel_size=(3, 3), stride=(1, 1))
  (39): ReLU()
  (40): ReflectionPad2d((1, 1, 1, 1))
  (41): Conv2d(64, 64, kernel_size=(3, 3), stride=(1, 1))
  (42): ReLU()
  (43): ReflectionPad2d((1, 1, 1, 1))
  (44): Conv2d(64, 3, kernel_size=(3, 3), stride=(1, 1))
  (45): ReLU()
)
[Network decoder] Total number of parameters : 17.074 M
-----------------------------------------------
